…
2019-11-24 18:55:58.130676: I tensorflow/core/common_runtime/process_util.cc:115] Creating new thread pool with default inter op setting: 4. Tune using inter_op_parallelism_threads for best performance.
Looking for previous weights...
No weights file detected, so starting from scratch.
 Available GPUs =  [] , count =  0
Summary of serial model (duplicated across 0 GPUs):
Model: "sequential_1"
_________________________________________________________________
Layer (type)                 Output Shape              Param #   
=================================================================
Input (Conv2D)               (None, 96, 420, 32)       320       
_________________________________________________________________
max_pooling2d_1 (MaxPooling2 (None, 48, 210, 32)       0         
_________________________________________________________________
activation_1 (Activation)    (None, 48, 210, 32)       0         
_________________________________________________________________
batch_normalization_1 (Batch (None, 48, 210, 32)       128       
_________________________________________________________________
conv2d_1 (Conv2D)            (None, 48, 210, 32)       9248      
_________________________________________________________________
max_pooling2d_2 (MaxPooling2 (None, 24, 105, 32)       0         
_________________________________________________________________
activation_2 (Activation)    (None, 24, 105, 32)       0         
_________________________________________________________________
dropout_1 (Dropout)          (None, 24, 105, 32)       0         
_________________________________________________________________
conv2d_2 (Conv2D)            (None, 24, 105, 32)       9248      
_________________________________________________________________
max_pooling2d_3 (MaxPooling2 (None, 12, 52, 32)        0         
_________________________________________________________________
activation_3 (Activation)    (None, 12, 52, 32)        0         
_________________________________________________________________
dropout_2 (Dropout)          (None, 12, 52, 32)        0         
_________________________________________________________________
conv2d_3 (Conv2D)            (None, 12, 52, 32)        9248      
_________________________________________________________________
max_pooling2d_4 (MaxPooling2 (None, 6, 26, 32)         0         
_________________________________________________________________
activation_4 (Activation)    (None, 6, 26, 32)         0         
_________________________________________________________________
dropout_3 (Dropout)          (None, 6, 26, 32)         0         
_________________________________________________________________
flatten_1 (Flatten)          (None, 4992)              0         
_________________________________________________________________
dense_1 (Dense)              (None, 128)               639104    
_________________________________________________________________
activation_5 (Activation)    (None, 128)               0         
_________________________________________________________________
dropout_4 (Dropout)          (None, 128)               0         
_________________________________________________________________
dense_2 (Dense)              (None, 6)                 774       
_________________________________________________________________
Output (Activation)          (None, 6)                 0         
=================================================================
Total params: 668,070
Trainable params: 668,006
Non-trainable params: 64
_________________________________________________________________
Train on 2120 samples, validate on 2120 samples
Epoch 1/50
2120/2120 [==============================] - 304s 144ms/step - loss: 2.0456 - accuracy: 0.3193 - val_loss: 1.7416 - val_accuracy: 0.2807
…
 Loading class 1/6: 'ANG', File 345/345: Preprocessed/Train/ANG/1049_TSI_ANG_XX.wav.npz                  
 Loading class 2/6: 'DIS', File 374/374: Preprocessed/Train/DIS/1051_IWW_DIS_XX.wav.npz                  
 Loading class 3/6: 'FEA', File 343/343: Preprocessed/Train/FEA/1009_IWL_FEA_XX.wav.npz                  
 Loading class 4/6: 'HAP', File 363/363: Preprocessed/Train/HAP/1040_DFA_HAP_XX.wav.npz                  
 Loading class 5/6: 'NEU', File 328/328: Preprocessed/Train/NEU/1048_WSI_NEU_XX.wav.npz                  
 Loading class 6/6: 'SAD', File 301/373: Preprocessed/Train/SAD/1038_MTI_SAD_XX.wav.npz                  
 MyCNN_Keras2: X_shape =  (2120, 96, 420, 1) , channels =  1
Looking for previous weights...
No weights file detected, so starting from scratch.
 Available GPUs =  [] , count =  0
Summary of serial model (duplicated across 0 GPUs):
Model: "sequential_2"
_________________________________________________________________
Layer (type)                 Output Shape              Param #   
=================================================================
Input (Conv2D)               (None, 96, 420, 32)       320       
_________________________________________________________________
max_pooling2d_5 (MaxPooling2 (None, 48, 210, 32)       0         
_________________________________________________________________
activation_6 (Activation)    (None, 48, 210, 32)       0         
_________________________________________________________________
batch_normalization_2 (Batch (None, 48, 210, 32)       128       
_________________________________________________________________
conv2d_4 (Conv2D)            (None, 48, 210, 32)       9248      
_________________________________________________________________
max_pooling2d_6 (MaxPooling2 (None, 24, 105, 32)       0         
_________________________________________________________________
activation_7 (Activation)    (None, 24, 105, 32)       0         
_________________________________________________________________
dropout_5 (Dropout)          (None, 24, 105, 32)       0         
_________________________________________________________________
conv2d_5 (Conv2D)            (None, 24, 105, 32)       9248      
_________________________________________________________________
max_pooling2d_7 (MaxPooling2 (None, 12, 52, 32)        0         
_________________________________________________________________
activation_8 (Activation)    (None, 12, 52, 32)        0         
_________________________________________________________________
dropout_6 (Dropout)          (None, 12, 52, 32)        0         
_________________________________________________________________
conv2d_6 (Conv2D)            (None, 12, 52, 32)        9248      
_________________________________________________________________
max_pooling2d_8 (MaxPooling2 (None, 6, 26, 32)         0         
_________________________________________________________________
activation_9 (Activation)    (None, 6, 26, 32)         0         
_________________________________________________________________
dropout_7 (Dropout)          (None, 6, 26, 32)         0         
_________________________________________________________________
flatten_2 (Flatten)          (None, 4992)              0         
_________________________________________________________________
dense_3 (Dense)              (None, 128)               639104    
_________________________________________________________________
activation_10 (Activation)   (None, 128)               0         
_________________________________________________________________
dropout_8 (Dropout)          (None, 128)               0         
_________________________________________________________________
dense_4 (Dense)              (None, 6)                 774       
_________________________________________________________________
Output (Activation)          (None, 6)                 0         
=================================================================
Total params: 668,070
Trainable params: 668,006
Non-trainable params: 64
_________________________________________________________________
Train on 2120 samples, validate on 2120 samples
Epoch 1/25
2120/2120 [==============================] - 248s 117ms/step - loss: 2.1119 - accuracy: 0.3052 - val_loss: 1.6840 - val_accuracy: 0.3160
…
 Loading class 1/6: 'ANG', File 345/345: Preprocessed/Train/ANG/1035_TIE_ANG_XX.wav.npz                  
 Loading class 2/6: 'DIS', File 374/374: Preprocessed/Train/DIS/1053_DFA_DIS_XX.wav.npz                  
 Loading class 3/6: 'FEA', File 343/343: Preprocessed/Train/FEA/1029_IOM_FEA_XX.wav.npz                  
 Loading class 4/6: 'HAP', File 363/363: Preprocessed/Train/HAP/1037_IWL_HAP_XX.wav.npz                  
 Loading class 5/6: 'NEU', File 328/328: Preprocessed/Train/NEU/1014_DFA_NEU_XX.wav.npz                  
 Loading class 6/6: 'SAD', File 301/373: Preprocessed/Train/SAD/1050_IWL_SAD_XX.wav.npz                  
 MyCNN_Keras2: X_shape =  (2080, 96, 420, 1) , channels =  1
Looking for previous weights...
No weights file detected, so starting from scratch.
 Available GPUs =  [] , count =  0
Summary of serial model (duplicated across 0 GPUs):
Model: "sequential_3"
_________________________________________________________________
Layer (type)                 Output Shape              Param #   
=================================================================
Input (Conv2D)               (None, 96, 420, 32)       320       
_________________________________________________________________
max_pooling2d_9 (MaxPooling2 (None, 48, 210, 32)       0         
_________________________________________________________________
activation_11 (Activation)   (None, 48, 210, 32)       0         
_________________________________________________________________
batch_normalization_3 (Batch (None, 48, 210, 32)       128       
_________________________________________________________________
conv2d_7 (Conv2D)            (None, 48, 210, 32)       9248      
_________________________________________________________________
max_pooling2d_10 (MaxPooling (None, 24, 105, 32)       0         
_________________________________________________________________
activation_12 (Activation)   (None, 24, 105, 32)       0         
_________________________________________________________________
dropout_9 (Dropout)          (None, 24, 105, 32)       0         
_________________________________________________________________
conv2d_8 (Conv2D)            (None, 24, 105, 32)       9248      
_________________________________________________________________
max_pooling2d_11 (MaxPooling (None, 12, 52, 32)        0         
_________________________________________________________________
activation_13 (Activation)   (None, 12, 52, 32)        0         
_________________________________________________________________
dropout_10 (Dropout)         (None, 12, 52, 32)        0         
_________________________________________________________________
conv2d_9 (Conv2D)            (None, 12, 52, 32)        9248      
_________________________________________________________________
max_pooling2d_12 (MaxPooling (None, 6, 26, 32)         0         
_________________________________________________________________
activation_14 (Activation)   (None, 6, 26, 32)         0         
_________________________________________________________________
dropout_11 (Dropout)         (None, 6, 26, 32)         0         
_________________________________________________________________
flatten_3 (Flatten)          (None, 4992)              0         
_________________________________________________________________
dense_5 (Dense)              (None, 128)               639104    
_________________________________________________________________
activation_15 (Activation)   (None, 128)               0         
_________________________________________________________________
dropout_12 (Dropout)         (None, 128)               0         
_________________________________________________________________
dense_6 (Dense)              (None, 6)                 774       
_________________________________________________________________
Output (Activation)          (None, 6)                 0         
=================================================================
Total params: 668,070
Trainable params: 668,006
Non-trainable params: 64
_________________________________________________________________
Train on 2080 samples, validate on 2080 samples
Epoch 1/25
2080/2080 [==============================] - 242s 116ms/step - loss: 2.6288 - accuracy: 0.2942 - val_loss: 1.7274 - val_accuracy: 0.2639
…
