…
2019-12-08 20:49:33.131145: I tensorflow/core/common_runtime/process_util.cc:115] Creating new thread pool with default inter op setting: 4. Tune using inter_op_parallelism_threads for best performance.
WARNING:tensorflow:Large dropout rate: 0.6 (>0.5). In TensorFlow 2.x, dropout() uses dropout rate instead of keep_prob. Please ensure that this is intended.
Looking for previous weights...
No weights file detected, so starting from scratch.
 Available GPUs =  [] , count =  0
Summary of serial model (duplicated across 0 GPUs):
Model: "sequential_1"
_________________________________________________________________
Layer (type)                 Output Shape              Param #   
=================================================================
Input (Conv2D)               (None, 96, 420, 32)       320       
_________________________________________________________________
max_pooling2d_1 (MaxPooling2 (None, 48, 210, 32)       0         
_________________________________________________________________
activation_1 (Activation)    (None, 48, 210, 32)       0         
_________________________________________________________________
batch_normalization_1 (Batch (None, 48, 210, 32)       128       
_________________________________________________________________
conv2d_1 (Conv2D)            (None, 48, 210, 32)       9248      
_________________________________________________________________
max_pooling2d_2 (MaxPooling2 (None, 24, 105, 32)       0         
_________________________________________________________________
activation_2 (Activation)    (None, 24, 105, 32)       0         
_________________________________________________________________
dropout_1 (Dropout)          (None, 24, 105, 32)       0         
_________________________________________________________________
conv2d_2 (Conv2D)            (None, 24, 105, 32)       9248      
_________________________________________________________________
max_pooling2d_3 (MaxPooling2 (None, 12, 52, 32)        0         
_________________________________________________________________
activation_3 (Activation)    (None, 12, 52, 32)        0         
_________________________________________________________________
dropout_2 (Dropout)          (None, 12, 52, 32)        0         
_________________________________________________________________
conv2d_3 (Conv2D)            (None, 12, 52, 32)        9248      
_________________________________________________________________
max_pooling2d_4 (MaxPooling2 (None, 6, 26, 32)         0         
_________________________________________________________________
activation_4 (Activation)    (None, 6, 26, 32)         0         
_________________________________________________________________
dropout_3 (Dropout)          (None, 6, 26, 32)         0         
_________________________________________________________________
flatten_1 (Flatten)          (None, 4992)              0         
_________________________________________________________________
dense_1 (Dense)              (None, 128)               639104    
_________________________________________________________________
activation_5 (Activation)    (None, 128)               0         
_________________________________________________________________
dropout_4 (Dropout)          (None, 128)               0         
_________________________________________________________________
dense_2 (Dense)              (None, 6)                 774       
_________________________________________________________________
Output (Activation)          (None, 6)                 0         
=================================================================
Total params: 668,070
Trainable params: 668,006
Non-trainable params: 64
_________________________________________________________________
Epoch 1/10
^CTraceback (most recent call last):
  File "experiments.py", line 161, in <module>
    morecontinuerundropoutexperiment(6)
  File "experiments.py", line 122, in morecontinuerundropoutexperiment
…
