…
Looking for previous weights...
Weights file detected. Loading from  6_convdropout0.5densedropout0.6weights.hdf5
WARNING:tensorflow:Large dropout rate: 0.6 (>0.5). In TensorFlow 2.x, dropout() uses dropout rate instead of keep_prob. Please ensure that this is intended.
 Available GPUs =  [] , count =  0
Summary of serial model (duplicated across 0 GPUs):
Model: "sequential_1"
_________________________________________________________________
Layer (type)                 Output Shape              Param #   
=================================================================
Input (Conv2D)               (None, 96, 420, 32)       320       
_________________________________________________________________
max_pooling2d_1 (MaxPooling2 (None, 48, 210, 32)       0         
_________________________________________________________________
activation_1 (Activation)    (None, 48, 210, 32)       0         
_________________________________________________________________
batch_normalization_1 (Batch (None, 48, 210, 32)       128       
_________________________________________________________________
conv2d_1 (Conv2D)            (None, 48, 210, 32)       9248      
_________________________________________________________________
max_pooling2d_2 (MaxPooling2 (None, 24, 105, 32)       0         
_________________________________________________________________
activation_2 (Activation)    (None, 24, 105, 32)       0         
_________________________________________________________________
dropout_1 (Dropout)          (None, 24, 105, 32)       0         
_________________________________________________________________
conv2d_2 (Conv2D)            (None, 24, 105, 32)       9248      
_________________________________________________________________
max_pooling2d_3 (MaxPooling2 (None, 12, 52, 32)        0         
_________________________________________________________________
activation_3 (Activation)    (None, 12, 52, 32)        0         
_________________________________________________________________
dropout_2 (Dropout)          (None, 12, 52, 32)        0         
_________________________________________________________________
conv2d_3 (Conv2D)            (None, 12, 52, 32)        9248      
_________________________________________________________________
max_pooling2d_4 (MaxPooling2 (None, 6, 26, 32)         0         
_________________________________________________________________
activation_4 (Activation)    (None, 6, 26, 32)         0         
_________________________________________________________________
dropout_3 (Dropout)          (None, 6, 26, 32)         0         
_________________________________________________________________
flatten_1 (Flatten)          (None, 4992)              0         
_________________________________________________________________
dense_1 (Dense)              (None, 128)               639104    
_________________________________________________________________
activation_5 (Activation)    (None, 128)               0         
_________________________________________________________________
dropout_4 (Dropout)          (None, 128)               0         
_________________________________________________________________
dense_2 (Dense)              (None, 6)                 774       
_________________________________________________________________
Output (Activation)          (None, 6)                 0         
=================================================================
Total params: 668,070
Trainable params: 668,006
Non-trainable params: 64
_________________________________________________________________
Epoch 1/10
2048/2048 [==============================] - 166s 81ms/step - loss: 1.3963 - accuracy: 0.4380

Epoch 00001: saving model to 6_convdropout0.5densedropout0.6weights.hdf5
Epoch 2/10
…
 Loading class 5/6: 'NEU', File 1/328: Preprocessed/Train/NEU/1087_IOM_NEU_XX.wa Loading class 5/6: 'NEU', File 101/328: Preprocessed/Train/NEU/1015_WSI_NEU_XX. Loading class 5/6: 'NEU', File 201/328: Preprocessed/Train/NEU/1084_IOM_NEU_XX. Loading class 5/6: 'NEU', File 301/328: Preprocessed/Train/NEU/1079_WSI_NEU_XX. Loading class 5/6: 'NEU', File 328/328: Preprocessed/Train/NEU/1051_IOM_NEU_XX.wav.npz                  
 Loading class 6/6: 'SAD', File 1/373: Preprocessed/Train/SAD/1011_IWL_SAD_XX.wa Loading class 6/6: 'SAD', File 101/373: Preprocessed/Train/SAD/1085_DFA_SAD_XX. Loading class 6/6: 'SAD', File 201/373: Preprocessed/Train/SAD/1026_IWL_SAD_XX.wav.npz                  
 MyCNN_Keras2: X_shape =  (2048, 96, 420, 1) , channels =  1
WARNING:tensorflow:Large dropout rate: 0.7 (>0.5). In TensorFlow 2.x, dropout() uses dropout rate instead of keep_prob. Please ensure that this is intended.
Looking for previous weights...
Weights file detected. Loading from  6_convdropout0.5densedropout0.7weights.hdf5
WARNING:tensorflow:Large dropout rate: 0.7 (>0.5). In TensorFlow 2.x, dropout() uses dropout rate instead of keep_prob. Please ensure that this is intended.
 Available GPUs =  [] , count =  0
Summary of serial model (duplicated across 0 GPUs):
Model: "sequential_2"
_________________________________________________________________
Layer (type)                 Output Shape              Param #   
=================================================================
Input (Conv2D)               (None, 96, 420, 32)       320       
_________________________________________________________________
max_pooling2d_5 (MaxPooling2 (None, 48, 210, 32)       0         
_________________________________________________________________
activation_6 (Activation)    (None, 48, 210, 32)       0         
_________________________________________________________________
batch_normalization_2 (Batch (None, 48, 210, 32)       128       
_________________________________________________________________
conv2d_4 (Conv2D)            (None, 48, 210, 32)       9248      
_________________________________________________________________
max_pooling2d_6 (MaxPooling2 (None, 24, 105, 32)       0         
_________________________________________________________________
activation_7 (Activation)    (None, 24, 105, 32)       0         
_________________________________________________________________
dropout_5 (Dropout)          (None, 24, 105, 32)       0         
_________________________________________________________________
conv2d_5 (Conv2D)            (None, 24, 105, 32)       9248      
_________________________________________________________________
max_pooling2d_7 (MaxPooling2 (None, 12, 52, 32)        0         
_________________________________________________________________
activation_8 (Activation)    (None, 12, 52, 32)        0         
_________________________________________________________________
dropout_6 (Dropout)          (None, 12, 52, 32)        0         
_________________________________________________________________
conv2d_6 (Conv2D)            (None, 12, 52, 32)        9248      
_________________________________________________________________
max_pooling2d_8 (MaxPooling2 (None, 6, 26, 32)         0         
_________________________________________________________________
activation_9 (Activation)    (None, 6, 26, 32)         0         
_________________________________________________________________
dropout_7 (Dropout)          (None, 6, 26, 32)         0         
_________________________________________________________________
flatten_2 (Flatten)          (None, 4992)              0         
_________________________________________________________________
dense_3 (Dense)              (None, 128)               639104    
_________________________________________________________________
activation_10 (Activation)   (None, 128)               0         
_________________________________________________________________
dropout_8 (Dropout)          (None, 128)               0         
_________________________________________________________________
dense_4 (Dense)              (None, 6)                 774       
_________________________________________________________________
Output (Activation)          (None, 6)                 0         
=================================================================
Total params: 668,070
Trainable params: 668,006
Non-trainable params: 64
_________________________________________________________________
Epoch 1/10
2048/2048 [==============================] - 171s 83ms/step - loss: 1.4677 - accuracy: 0.4316

Epoch 00001: saving model to 6_convdropout0.5densedropout0.7weights.hdf5
Epoch 2/10
…
